artifacts/model.pth (torch, 115921 bytes, 20 tensors)

weight f4 [16, 1, 3, 3]
0	0xbe730bc0	-0.23734951
1	0x3ce9c515	0.028536359
2	0x3e8f54f4	0.27994502
3	0xbe649df8	-0.22325885
4	0x3ce6edb3	0.028189516
5	0xbdb9a780	-0.09065151
6	0x3e72817d	0.23682208
7	0x3ea936b3	0.33049545
8	0x3e12a24e	0.14319727
9	0x3e689aeb	0.22715347
10	0xbea0430e	-0.3130116
11	0xbe23f6fa	-0.16012183
12	0xbea65695	-0.32487932
13	0xbd926b25	-0.071493424
14	0xbe405879	-0.1878375
15	0xbcb87e48	-0.022521153
16	0xbd644f28	-0.05573955
17	0xbdef6e14	-0.116909176
18	0x3d2586dc	0.040411815
19	0x3e812585	0.25223938
20	0xbe032f39	-0.12810983
21	0x3d9c1b25	0.07622365
22	0x3db33641	0.087505825
23	0x3e7bd8a1	0.24594356
24	0xbe136c11	-0.14396693
25	0xbbe87c5f	-0.0070949043
26	0x3df4da14	0.119556576
27	0xbe80a1a7	-0.2512333
28	0xbcae4877	-0.021274788
29	0xbe8b86ad	-0.27251187
30	0x3d910c3e	0.07082413
31	0x3d98f446	0.074684665
32	0xbe8d13c9	-0.27554157
33	0x3e1e487a	0.15457335
34	0xbce54318	-0.027986094
35	0xbe9c6e2b	-0.305528
36	0xbe9e6bed	-0.30941716
37	0xbc905676	-0.017619353
38	0x3e3d84d5	0.18507703
39	0x3dec981e	0.115524516
40	0xbea207f0	-0.3164668
41	0x3e95c061	0.29248336
42	0xbe9bf9c3	-0.3046399
43	0xbe9cc6c3	-0.30620393
44	0xbd93517b	-0.071932755
45	0x3db4e246	0.08832221
46	0x3e910a6a	0.28328258
47	0x3d95a0d1	0.07306064
48	0xbcdfcfd4	-0.02732078
49	0xbd466e16	-0.04844483
50	0x3e63b593	0.22237234
51	0xbda72b20	-0.08162522
52	0xbe779b8e	-0.24180433
53	0xbe87c003	-0.2651368
54	0xbeb53197	-0.35389397
55	0x3e5d6090	0.21618867
56	0xbe83ae9e	-0.2571916
57	0x3dd71e2d	0.105038024
58	0xba253425	-0.00063020206
59	0x3d58cb60	0.05292833
60	0xbe4b1009	-0.19830336
61	0x3d2e62a6	0.042574547
62	0xbe530d17	-0.20610462
63	0x3e0eaed1	0.13933875
64	0xbd026229	-0.031831894
65	0xbdd8dccb	-0.10588988
66	0x3eb3ea15	0.35139528
67	0xbe61e3a2	-0.22059491
68	0x3d882967	0.06648522
69	0x3e6e95c8	0.23299325
70	0xbe302920	-0.17203188
71	0xbe7ca675	-0.24672873
72	0x3d435989	0.04769281
73	0xbe882c8f	-0.26596496
74	0xbe9f1218	-0.31068492
75	0x3e6e2c75	0.23259147
76	0x3df63bf0	0.12023151
77	0xbdf560ae	-0.11981331
78	0xbcb3f709	-0.021968381
79	0x3ea3def7	0.32006046
80	0x3d26eb6d	0.040751863
81	0x3eb87450	0.3602624
82	0x3db219d9	0.08696336
83	0xbe9d83b9	-0.3076456
84	0x3cf2db44	0.02964557
85	0x3e27ef76	0.16399941
86	0x3d6c0e6a	0.057630934
87	0x3d3c1ae4	0.045924082
88	0xbdff3e2f	-0.124630325
89	0x3e117be9	0.14207424
90	0xbde98847	-0.11402946
91	0x3e997587	0.2997248
92	0xbe4b0e5f	-0.19829701
93	0xbcd982b0	-0.026551574
94	0x3e12420d	0.14283009
95	0x3eb1af3d	0.3470401
96	0x3e3675f3	0.17818432
97	0x3e2543f8	0.1613921
98	0x3dd68910	0.10475361
99	0x3d87b53f	0.06626367
100	0xbe5a5293	-0.21320562
101	0xbd837c73	-0.06420221
102	0xbd6a8e63	-0.057264697
103	0x3e2d8164	0.1694389
104	0x3e6bd5e6	0.23030815
105	0xbd9faf9b	-0.07797166
106	0x3e3932ed	0.18085833
107	0x3e8d12ec	0.275535
108	0xbe471f36	-0.194455
109	0x3e46653d	0.19374557
110	0x3e66e5b2	0.2254856
111	0xbe842c6c	-0.2581514
112	0x3e351938	0.17685401
113	0xbe8b5271	-0.27211335
114	0x3d428848	0.04749325
115	0x3ea78c48	0.32724214
116	0xbe7daacb	-0.24772184
117	0x3e50370d	0.203335
118	0xbe957378	-0.29189658
119	0xbe1488cf	-0.14505313
120	0xbeb12eba	-0.34605962
121	0xbd37fc65	-0.044918437
122	0x3bd1a9ab	0.0063984
123	0x3d6480b6	0.05578681
124	0x3cf9595e	0.030438121
125	0x3c1233dd	0.008923498
126	0x3df861f1	0.12128056
127	0x3db8719e	0.09006046
128	0x3e860cce	0.26181644
129	0xbd941aba	-0.0723166
130	0x3c077554	0.008267719
131	0x3e8a7c4c	0.27047956
132	0xbda18e70	-0.07888496
133	0x3e944937	0.28962108
134	0x3e0a2120	0.13489199
135	0xbec4087f	-0.38287732
136	0xbd4aeecc	-0.04954414
137	0xbe15f3bd	-0.1464376
138	0x3e083460	0.1330123
139	0x3e54e26b	0.20789497
140	0x3e6bc95b	0.2302603
141	0xbe894913	-0.26813564
142	0xbc8c6d35	-0.017141918
143	0x3e763bf4	0.24046308

bias f4 [16]
0	0xbe8874bb	-0.26651558
1	0x3e4568d6	0.19278273
2	0xbe126940	-0.14297962
3	0x3da4be9b	0.080441676
4	0x3e96cac8	0.29451585
5	0x3e308526	0.17238292
6	0x3e917bd0	0.28414774
7	0xbe95885a	-0.2920559
8	0x3e816678	0.2527349
9	0xbe5c2e73	-0.21502094
10	0x3dbae850	0.09126341
11	0xbe8e546e	-0.2779879
12	0x3e2afcf6	0.1669806
13	0x3d870bd6	0.065940544
14	0x3e7c44c6	0.2463561
15	0x3e065db8	0.13121688

weight f4 [16]
0	0x3f7b5c80	0.9818802
1	0x3f81e766	1.0148742
2	0x3f8098e8	1.0046663
3	0x3f8075e5	1.0035979
4	0x3f82411a	1.0176117
5	0x3f87d902	1.06131
6	0x3f79f9b1	0.97646624
7	0x3f825a88	1.0183878
8	0x3f802041	1.0009843
9	0x3f764f97	0.96215194
10	0x3f7e294a	0.9928175
11	0x3f7fdacd	0.9994324
12	0x3f7473eb	0.95489377
13	0x3f7f9d89	0.99849755
14	0x3f82a5af	1.0206813
15	0x3f79fe23	0.97653407

bias f4 [16]
0	0x3c1cf48f	0.009579792
1	0x3cb65ac1	0.022260072
2	0x3d075751	0.033042256
3	0x3bfbf5ea	0.0076892274
4	0x3cf4a909	0.029865758
5	0x3c30ddf5	0.010795106
6	0xbccf8ae4	-0.025334783
7	0xb9bd9601	-0.0003616065
8	0x3c96626b	0.018357476
9	0x3c0a0fa7	0.008426583
10	0x3d36ea37	0.04465696
11	0x3d897d89	0.06713397
12	0xbc8510f9	-0.016243445
13	0x3b90e4b8	0.0044217966
14	0x3ccbd15d	0.024880106
15	0xbcb1482e	-0.021640863

running_mean f4 [16]
0	0x419644c3	18.783575
1	0xc21c9f6c	-39.155685
2	0x41a58121	20.688051
3	0xc20287cc	-32.632614
4	0xc1df4529	-27.90877
5	0x3e565429	0.20930542
6	0xc1b52a73	-22.645727
7	0x3e1856eb	0.14876907
8	0x3ff668cd	1.9250733
9	0x4189dc93	17.232702
10	0x4209fcb7	34.49679
11	0x419ac1bb	19.344595
12	0x3e057f27	0.13036786
13	0xc1a00537	-20.002546
14	0x421e4cad	39.57488
15	0xbfe56937	-1.7922734

running_var f4 [16]
0	0x451fec01	2558.7502
1	0x45adddd6	5563.7295
2	0x44d553c6	1706.6179
3	0x4576fb69	3951.7131
4	0x4571538d	3861.222
5	0x44a98992	1356.2991
6	0x44af7251	1403.5724
7	0x44c6d6a1	1590.7072
8	0x44b01611	1408.6896
9	0x44bffe9f	1535.9569
10	0x458f059b	4576.7007
11	0x450f7a6f	2295.652
12	0x4436bb38	730.9253
13	0x44e87abc	1859.8354
14	0x45a98674	5424.8066
15	0x44c32146	1561.0398

weight f4 [32, 16, 3, 3]
0	0x3bea8b45	0.0071577155
1	0xbd606e62	-0.05479277
2	0xbd899302	-0.06717493
3	0x3d28d00f	0.041214045
4	0xbc744a50	-0.014910296
5	0x3d0aec3b	0.033916693
6	0xbcccb6bd	-0.02498948
7	0xbc855906	-0.016277801
8	0x3d5b6ef1	0.0535726
9	0x3d09896b	0.033578318
10	0xbd94fcdf	-0.07274794
11	0x3c107e3b	0.008819158
12	0xbd5baba5	-0.05363049
13	0xbcc1135a	-0.023568798
14	0x3cc75a62	0.02433509
15	0xbc94051c	-0.018068843
16	0xbb63c8bd	-0.00347571
17	0xbbeaf4e8	-0.0071703084
18	0x3b880e6b	0.0041521094
19	0xbda13071	-0.078705676
20	0xbd211df9	-0.039335225
21	0x3d9875c0	0.07444334
22	0x3d6a1cbd	0.057156313
23	0xbb5bf4f9	-0.0033562763
24	0x3cd27bdd	0.025693828
25	0xbb57bcaf	-0.003291886
26	0x3ba4be2a	0.005027552
27	0x39d219a4	0.00040073425
28	0x3cb8709b	0.022514632
29	0x3d05dea2	0.032683022
30	0x3d540c87	0.05176976
31	0x3b8eb61a	0.0043552043
32	0xbd2e41c0	-0.042543173
33	0x3c3a2655	0.011361678
34	0x3d8c5245	0.06851629
35	0xbd53f260	-0.05174482
36	0x3d8d6d2d	0.06905589
37	0xbd026a1b	-0.03183947
38	0xbc9a2896	-0.018818181
39	0xbc95c042	-0.018280152
40	0xbc652d4c	-0.01398785
41	0x3bf0efc5	0.0073528015
42	0xbcbf66c8	-0.02336444
43	0xbd7e181b	-0.062034708
44	0x3d30f96b	0.043206614
45	0xbd5586eb	-0.05213062
46	0xbda3350c	-0.07969102
47	0xba1d1b2e	-0.0005993125
48	0xbd88b80e	-0.06675731
49	0xbdce07fb	-0.10060116
50	0x3a777aad	0.00094405824
51	0xbd0b05a4	-0.033940926
52	0xbd773d9d	-0.060361493
53	0xbd292306	-0.041293167
54	0x3cb1a436	0.021684747
55	0xbbfe24d8	-0.007755857
56	0xbce8041b	-0.02832227
57	0xbcf4da3c	-0.029889219
58	0xbd0d237b	-0.034457665
59	0xbc281d73	-0.0102609275
60	0xbabf435f	-0.0014592222
61	0xbc9b7c21	-0.018980088
62	0xbd420151	-0.047364537
63	0x3d952b26	0.072836205
64	0x3db721f3	0.08942022
65	0x3db7335a	0.089453414
66	0x3db8c906	0.09022717
67	0x3dd79d47	0.10528045
68	0x3d21d70d	0.03951173
69	0xbce75664	-0.028239436
70	0x3d96a286	0.07355218
71	0x3d98a806	0.07453923
72	0xbcc82748	-0.024432793
73	0x3d9969f9	0.07490916
74	0x3d6d0176	0.05786272
75	0xbce08d17	-0.027411027
76	0x3da3e471	0.08002556
77	0x3cbcab5b	0.023030927
78	0x3ddad9aa	0.106860474
79	0xbc9602c6	-0.01831187
80	0xba8d5019	-0.0010781317
81	0xbc65bf93	-0.014022726
82	0x3d4a5020	0.04939282
83	0xbca461a5	-0.020066092
84	0x3cbc4e17	0.022986455
85	0xbce354f9	-0.027750479
86	0x3cc5790c	0.024105571
87	0x3d880b20	0.06642747
88	0x3d2b81c5	0.041871805
89	0xbd1e7d7c	-0.03869389
90	0x3d43df30	0.04782027
91	0x3d5c9c75	0.053860147
92	0xbd66e2f7	-0.056368794
93	0xbce58f81	-0.02802253
94	0x3c641ccb	0.01392288
95	0xbd926b69	-0.07149393
96	0x39f64aa9	0.00046976403
97	0x3dabad7a	0.083826974
98	0xbd0bd4d3	-0.034138512
99	0xbd966dd5	-0.073451675
100	0x3c8ce7af	0.01720032
101	0xbc30ff22	-0.010803016
102	0xbd8fade3	-0.07015588
103	0x3af22faa	0.001847734
104	0x3d04ed4f	0.032452878
105	0xbd894ec3	-0.06704476
106	0x3d144597	0.03619918
107	0x3d0f7d85	0.035031814
108	0x3ce1dd7c	0.027571432
109	0x3d515dec	0.05111496
110	0x3cb0235d	0.021501238
111	0x3d1bd4f0	0.03804487
112	0x3c81d729	0.015849667
113	0x3d89589d	0.06706355
114	0x3d662443	0.056186926
115	0x3da1789f	0.07884335
116	0x3d69c9d6	0.05707725
117	0xbdbe66d0	-0.09296954
118	0xbd5ccc9c	-0.05390607
119	0x3d0f4991	0.034982268
120	0xbda322f1	-0.07965649
121	0x3cb02dbf	0.021506188
122	0xbd0d6330	-0.03451842
123	0x3cf1009b	0.029419234
124	0xbd601885	-0.054710884
125	0x3c5f12fe	0.013615368
126	0x3d24f26f	0.040270265
127	0xbd16f09d	-0.03685056
128	0xbd054cb8	-0.032543868
129	0xbc86c487	-0.016451133
130	0xbb69155f	-0.0035565717
131	0x3a254885	0.0006305057
132	0x3d4f7285	0.050646324
133	0xbd1fecf7	-0.039044347
134	0x3afd1b4a	0.0019310501
135	0xbd1e8165	-0.03869762
136	0x3cfa3ee6	0.03054757
137	0x3c869499	0.016428279
138	0xbc728d99	-0.014804267
139	0x3c917d4b	0.01775994
140	0x3cf6308a	0.030052442
141	0xbd1a471d	-0.037665475
142	0xbc801b10	-0.015637904
143	0xbc8b4b3c	-0.017003648
144	0x3d2f3e6e	0.042784147
145	0x3ca85b1c	0.020551257
146	0xbd6be7ac	-0.057593986
147	0x3ca2dff7	0.019882185
148	0x3c509452	0.012730675
149	0x3c7c5e4b	0.015403341
150	0x3cce4102	0.025177483
151	0x3bda7531	0.0066668023
152	0xbda9da94	-0.082936436
153	0x3d77b6d1	0.06047708
154	0xbc2e6e3b	-0.010646398
155	0x3b8c8d07	0.0042892727
156	0x3d66c875	0.056343514
157	0xbc9f191f	-0.019421158
158	0x3d8d7e77	0.06908887
159	0x3d995d9a	0.07488556
160	0xbd9607c5	-0.07325701
161	0x3d9781b3	0.07397785
162	0x3d0dd04d	0.03462248
163	0x3d46d247	0.04854038
164	0xbccafac4	-0.024777777
165	0x3c373fa2	0.011184605
166	0x3d764120	0.0601207
167	0xbd7e3892	-0.06206567
168	0x3cff4cb0	0.031164497
169	0xbd494b99	-0.04914436
170	0xbd8d6414	-0.06903854
171	0xbd1b936a	-0.037982382
172	0xbd3379ef	-0.043817457
173	0x3d905490	0.07047379
174	0x3d849b99	0.064749904
175	0x3ba805be	0.0051276376
176	0x3d801d31	0.06255568
177	0x3c907dc4	0.017638095
178	0x3d0c4481	0.034245018
179	0xbd79acab	-0.060955685
180	0xbd67c2ab	-0.056582134
181	0x3d607ab4	0.05480452
182	0xbd0c0357	-0.034182873
183	0x3dd01a32	0.10161246
184	0xbd1e8a64	-0.0387062
185	0x3c4d6143	0.012535396
186	0x3c70e30c	0.01470257
187	0xbd635595	-0.05550154
188	0xbd806e1b	-0.06271001
189	0xbc01d20b	-0.007923613
190	0xbd807dd3	-0.06273999
191	0xbdaf12d6	-0.085485145
192	0x3d07ca67	0.03315201
193	0xbda34904	-0.07972911
194	0xbd929367	-0.07157021
195	0x3ce89bb4	0.028394558
196	0x3d6794fa	0.05653856
197	0xbd5987bc	-0.053107962
198	0x3d02d9c9	0.031945977
199	0x3d4b1ed6	0.049589954
200	0xbba9449c	-0.0051656496
201	0xbcb50141	-0.022095324
202	0x3d91f1c9	0.07126195
203	0xbd284fd9	-0.041091774
204	0xbcd6dd5a	-0.026228596
205	0xbd89a242	-0.06720401
206	0x3d97afcf	0.0740658
207	0x3d871cfe	0.06597327
208	0x3d856d7d	0.06515024
209	0xbd03b498	-0.03215465
210	0xbd8a12e8	-0.06741887
211	0x3da2cf4a	0.079496935
212	0xbc31d6da	-0.010854447
213	0xbcf8b0ea	-0.030357797
214	0x3bcf53d6	0.0063271327
215	0x3d26638a	0.04062227
216	0xbcefdd62	-0.029280368
217	0x3d348df9	0.04408071
218	0x3c5a2940	0.013315499
219	0xbd7a26a5	-0.06107201
220	0xbc632996	-0.013864895
221	0xbb3757ee	-0.0027975994
222	0xbd67e9b4	-0.05661936
223	0xbc291934	-0.01032095
224	0xbcae6031	-0.021286102
225	0x3cf081db	0.029358795
226	0x3cc6d80f	0.024272947
227	0x3d512a9c	0.051066026
228	0xbd853924	-0.06505039
229	0x3d202592	0.03909833
230	0x3c965998	0.018353269
231	0xbc4191b1	-0.011814521
232	0x3caf70cd	0.021416092
233	0x3cd2b1fe	0.025719639
234	0xbd0e84d6	-0.03479465
235	0x3d9112e4	0.07083681
236	0x3d81abba	0.06331582
237	0xbd687300	-0.056750298
238	0x3d50bb70	0.050960004
239	0xbdaa62c0	-0.08319616
240	0x3d6697c6	0.056297086
241	0x3d592716	0.05301579
242	0x3d42785b	0.04747806
243	0x3c7e1c59	0.015509688
244	0xbc396c7b	-0.011317368
245	0xbdcae0aa	-0.099061325
246	0x3d762563	0.06009425
247	0xbcf1cfe0	-0.029518068
248	0x3d03ffaa	0.032226242
249	0xbd36c35d	-0.044619907
250	0x3cc24fd4	0.023719706
251	0xbc82b16e	-0.015953746
252	0xbcd2808f	-0.025696067
253	0x3cf45fe3	0.029830879
254	0x3d1db60f	0.038503703
255	0xbcb01353	-0.02149359

bias f4 [32]
0	0x3cdaaa06	0.026692402
1	0xbc42704b	-0.011867593
2	0x3d286d5b	0.041119915
3	0xbd8851eb	-0.066562496
4	0x3b38e300	0.0028211474
5	0x3d6dddbe	0.058072798
6	0xbd831533	-0.06400528
7	0xbd101e76	-0.0351853
8	0xbaf9c365	-0.0019055424
9	0xbda0d28e	-0.0785266
10	0x3d47c596	0.048772417
11	0xbd26f388	-0.040759593
12	0xbc1036c0	-0.008802116
13	0xbb92b316	-0.004476915
14	0x3d51d168	0.051225096
15	0xbd37ff60	-0.04492128
16	0x3da58b77	0.080832414
17	0xbcc0bc76	-0.023527365
18	0xbd8da737	-0.06916659
19	0xbd8906bc	-0.066907376
20	0x3d67b336	0.056567393
21	0xbcc93ad0	-0.024564177
22	0x3da6fc8e	0.0815364
23	0x3d15791e	0.03649246
24	0x3ceda3c6	0.029008757
25	0xbc967216	-0.018364947
26	0xbd4d9e50	-0.050199807
27	0xbd6cde7b	-0.05782936
28	0xbc91bdd0	-0.017790705
29	0xbbe7be00	-0.0070722103
30	0xbd33ea53	-0.04392464
31	0x3d6a052b	0.057133835

weight f4 [32]
0	0x3f821f18	1.0165739
1	0x3f797211	0.97439677
2	0x3f7afd6d	0.9804295
3	0x3f8106a0	1.0080147
4	0x3f824a27	1.017888
5	0x3f7fcb51	0.9991961
6	0x3f7eabdd	0.9948099
7	0x3f7fc1b7	0.9990496
8	0x3f8113d2	1.0084174
9	0x3f804284	1.0020299
10	0x3f85d826	1.0456588
11	0x3f803742	1.0016863
12	0x3f82733b	1.0191416
13	0x3f80ae26	1.0053146
14	0x3f81b104	1.0132146
15	0x3f7ef37c	0.9959028
16	0x3f7c582d	0.98572046
17	0x3f80c5dd	1.0060383
18	0x3f80186c	1.0007453
19	0x3f78db46	0.97209585
20	0x3f7ed31b	0.9954087
21	0x3f7e3afe	0.99308765
22	0x3f7732c5	0.96561843
23	0x3f81ad4e	1.0131013
24	0x3f7dd2d6	0.99149835
25	0x3f81274e	1.009012
26	0x3f80e05d	1.006847
27	0x3f7cffe6	0.9882797
28	0x3f7e00b1	0.99219805
29	0x3f80fa41	1.0076371
30	0x3f7cdd5b	0.9877526
31	0x3f7ce897	0.98792404

bias f4 [32]
0	0x3cb9ceea	0.022681672
1	0xbd02d421	-0.031940583
2	0xbc01c8c1	-0.007921399
3	0xbadb8c86	-0.0016750253
4	0x3b7449cc	0.0037275432
5	0xbc334238	-0.010941081
6	0x3c4794bc	0.012181457
7	0xbbe5f92b	-0.0070182285
8	0x3a885dec	0.0010403967
9	0x3ca934a1	0.020654978
10	0x3c76e088	0.015068181
11	0xbc2d2cf6	-0.010569802
12	0x3cbfd3f7	0.023416502
13	0x3bb59cdd	0.005542381
14	0xb9115287	-0.00013859021
15	0x3cbb2e3e	0.022849198
16	0xba8ececd	-0.0010895372
17	0x3b18968d	0.0023283095
18	0xbb2c3f07	-0.0026282684
19	0x3c7cd580	0.015431762
20	0xbc0abfdf	-0.008468597
21	0xbc400cb7	-0.011721781
22	0xbc01b3ed	-0.007916433
23	0x3c08061a	0.008302236
24	0x3c26f356	0.010189852
25	0xbb8a0066	-0.0042114733
26	0x3c10e772	0.008844243
27	0xbc16c9b2	-0.009203361
28	0x3cb50c0c	0.022100471
29	0xbc951a91	-0.018201144
30	0xbb8a1972	-0.004214459
31	0x3caf2595	0.021380225

running_mean f4 [32]
0	0x3da1ec53	0.079064034
1	0x3dfa8f94	0.122344166
2	0xbe876363	-0.26443014
3	0xbe29c719	-0.16579856
4	0xbcb16404	-0.021654136
5	0x3ddd6f37	0.10812228
6	0x3e227e7d	0.15868564
7	0xbef906b8	-0.48637938
8	0x3d2e1080	0.042496204
9	0x3d897df1	0.067134745
10	0xbe1c24f2	-0.15248469
11	0xbe8c9fe1	-0.27465728
12	0x3d5e865d	0.054327358
13	0xbeafc2b3	-0.3432823
14	0xbe0dcd65	-0.13847883
15	0x3e91a125	0.28443256
16	0xbe944b8f	-0.28963897
17	0xbe6c20fc	-0.23059458
18	0xbeb555a4	-0.354169
19	0xbd82a068	-0.06378251
20	0xbeae8d22	-0.3409205
21	0x3d33988a	0.043846644
22	0x3f0af7ba	0.5428425
23	0xbeba22d7	-0.36354706
24	0xbce8e3ea	-0.02842899
25	0xbd07c4a2	-0.033146508
26	0xbf06b5d5	-0.52621204
27	0xbe702068	-0.23449862
28	0x3f07b828	0.53015375
29	0xbe4631e5	-0.19354971
30	0xbe15a4b8	-0.14613616
31	0xbe9db632	-0.30803066

running_var f4 [32]
0	0x3e6a6f0d	0.22893925
1	0x3e81dcc2	0.25363737
2	0x3e6b4e5e	0.22979113
3	0x3e5d0baa	0.2158648
4	0x3e66212e	0.22473595
5	0x3dd932b2	0.106053725
6	0x3e5398d7	0.20663773
7	0x3e9b5161	0.30335525
8	0x3e7cd8c0	0.24692059
9	0x3ea77e20	0.32713413
10	0x3e8b2c3f	0.27182195
11	0x3e876d54	0.26450598
12	0x3ea5d6b6	0.32390374
13	0x3e96ccf6	0.29453248
14	0x3e1fc068	0.15600741
15	0x3df30628	0.118664086
16	0x3eb2dc3b	0.34933648
17	0x3e8d0e9e	0.27550215
18	0x3f081058	0.5314994
19	0x3ed734a9	0.42032364
20	0x3f31dcce	0.69477546
21	0x3ea91cd8	0.3302982
22	0x3eb5826f	0.35451075
23	0x3e91884c	0.284243
24	0x3e4379b9	0.19089402
25	0x3ea5d979	0.3239248
26	0x3eb6f962	0.3573714
27	0x3e0555d0	0.13021016
28	0x3f3b21b1	0.73098284
29	0x3e991407	0.29898092
30	0x3e38d8aa	0.18051401
31	0x3db4f304	0.08835414

weight f4 [64, 32, 3, 3]
0	0xbd3ae2cb	-0.045626443
1	0xbc49116e	-0.012272222
2	0x3cf1d421	0.029520096
3	0xbd72faa7	-0.059321072
4	0x3d033774	0.032035306
5	0x3bbb9c4b	0.0057254187
6	0x3d5075e6	0.050893687
7	0x3b8e40d6	0.004341225
8	0x3bd69bf3	0.0065493523
9	0xbc4619aa	-0.01209108
10	0xbc942b31	-0.018087002
11	0xbd1f8620	-0.03894627
12	0xbc1a7878	-0.009428136
13	0xbd5831ee	-0.05278199
14	0xbbf564fc	-0.007488845
15	0x3c4ecb1a	0.012621665
16	0xba5d70d4	-0.00084472937
17	0xbd3b879a	-0.045783617
18	0x3c99dc27	0.018781735
19	0xbcb3d383	-0.021951443
20	0xbd5184de	-0.051152103
21	0xbc8a1564	-0.016855903
22	0x3d2fae44	0.042890802
23	0x3d0b7aa1	0.034052495
24	0xbaab4f8a	-0.0013069969
25	0x3cb20676	0.021731596
26	0x3c338304	0.0109565295
27	0x3d46e103	0.04855443
28	0xbc55e2d0	-0.013054565
29	0xbcd74579	-0.026278244
30	0xbd8468f6	-0.06465332
31	0xbd42a0f4	-0.047516778
32	0xbd5f1739	-0.054465506
33	0x3cc6097a	0.02417444
34	0xbd267aad	-0.040644336
35	0xbc44ddb7	-0.012015752
36	0x3b445526	0.002995798
37	0x3d0a068d	0.033697654
38	0xbc6be0d0	-0.014396861
39	0x3cfc5d13	0.0308061
40	0xbd40aded	-0.04704087
41	0xbc802230	-0.015641302
42	0x3d7e706d	0.062118936
43	0xbd304f96	-0.04304465
44	0x3ce3a816	0.02779011
45	0xbd12c40e	-0.035831504
46	0x3beac09b	0.0071640736
47	0x3d2b6e5c	0.041853294
48	0x3b79853a	0.0038073794
49	0xbd3816bb	-0.044943552
50	0xbc9dddd9	-0.019270824
51	0xbc2435f9	-0.010022634
52	0x3d704c02	0.058666237
53	0xbc061569	-0.0081838155
54	0xbbe3421f	-0.0069353725
55	0xbb4e14d6	-0.0031445525
56	0x3c4095a3	0.011754426
57	0xbd06b4c9	-0.032887254
58	0x3c8302f9	0.015992628
59	0xbc95cdc7	-0.018286599
60	0x3bd1452d	0.00638642
61	0x3d27b22d	0.040941406
62	0x3d4bf0a7	0.04979005
63	0xbc1c9e17	-0.009559176
64	0xbb9342e3	-0.0044940575
65	0xbc8c33f5	-0.017114619
66	0x3d12887c	0.035774693
67	0xbd0d710c	-0.034531638
68	0x3d33eb63	0.043925654
69	0x3d63f0f5	0.055649716
70	0x3c61e680	0.013787866
71	0xbb93bb31	-0.004508399
72	0x3c87a524	0.016558237
73	0xbc83dfea	-0.016097981
74	0xbd4532d6	-0.048144184
75	0xbd44d4a1	-0.04805434
76	0x3d951525	0.072794236
77	0x3d42b2a1	0.047533635
78	0xba0d9957	-0.00054015726
79	0xbd06303d	-0.032760847
80	0xbd1bae5e	-0.038008086
81	0x3bcecd39	0.0063110855
82	0x3b8ce2f6	0.004299517
83	0x3c241517	0.010014794
84	0x3c832717	0.01600985
85	0xbd28834c	-0.04114084
86	0x3cee036e	0.02905437
87	0x3bbb3625	0.0057132416
88	0xbd5a8424	-0.053348675
89	0x3d40bffb	0.047058087
90	0x3c12d3f1	0.008961664
91	0x3af8a52c	0.0018970123
92	0xbd77f287	-0.060534026
93	0x3c1ea61c	0.009683158
94	0xbad0a041	-0.00159169
95	0xbc512f4e	-0.012767626
96	0x3c360242	0.011108937
97	0xbd08891c	-0.033333883
98	0x3cf15a81	0.029462101
99	0x3b7865e2	0.0037902524
100	0xbc1dff9c	-0.009643462
101	0x3b98a52d	0.0046583624
102	0xbd7e1ba6	-0.062038086
103	0xbd81a4f7	-0.06330293
104	0xb982ca99	-0.0002494648
105	0xbcfc28bc	-0.030781142
106	0xbd2bde97	-0.041960325
107	0xbd61a9ac	-0.055093452
108	0x3cc80036	0.024414163
109	0xbccd7229	-0.02507885
110	0x3d17af04	0.037032142
111	0x3d2e8d68	0.042615324
112	0x3b9fe254	0.0048792753
113	0xbd44357c	-0.04790257
114	0x3a9e9159	0.001209776
115	0x3d3b5717	0.045737352
116	0x3c05bd52	0.008162813
117	0xbc5cb2cf	-0.013470366
118	0xbd3a2b58	-0.045451492
119	0xbd2e31fa	-0.04252813
120	0x3b06ee6b	0.0020588886
121	0xbd4b7c93	-0.04967935
122	0x3c369588	0.011144049
123	0xbd863a95	-0.065541424
124	0xb957bbd9	-0.00020573977
125	0xbcd39d92	-0.025831971
126	0x3cb63aa1	0.022244753
127	0x3c85e103	0.016342646
128	0x3cf49995	0.02985839
129	0x3d13343f	0.035938498
130	0x3aa0c685	0.0012266195
131	0xbc0dd871	-0.008657561
132	0x3d8357fd	0.06413267
133	0xbc497f77	-0.012298456
134	0x3d5c3e23	0.053770196
135	0xbd316c72	-0.043316312
136	0x3d8ea136	0.06964342
137	0xbc8b9c16	-0.017042201
138	0x3c9153b2	0.017740104
139	0x3a0ca2eb	0.0005364853
140	0x3d110956	0.035409294
141	0xbbd78608	-0.006577257
142	0x3d15709e	0.036484353
143	0x3ce87162	0.028374378
144	0x3d3ae6f9	0.04563043
145	0xbd4a841d	-0.0494424
146	0xbd788ed8	-0.0606831
147	0x3b7f7288	0.0038978178
148	0xbbfd6f9f	-0.0077342535
149	0x3ccadbbb	0.024762979
150	0x3d10e9a4	0.035379067
151	0xbd913875	-0.070908464
152	0xbcb0be84	-0.02157522
153	0xbb991a17	-0.0046722996
154	0x3d6e9278	0.058245152
155	0xbd6316ca	-0.055441655
156	0x3c3bba0a	0.011457929
157	0x3d16e13d	0.036835898
158	0xbcd1ed41	-0.025625827
159	0xbd03598b	-0.032067817
160	0xbb9a129f	-0.004701927
161	0xbc2467b7	-0.010034493
162	0xbcee1851	-0.02906433
163	0xbd301bc6	-0.042995237
164	0x3cb2587d	0.02177071
165	0xbd81011b	-0.06299039
166	0xbcac154e	-0.021006253
167	0x3d18ed64	0.03733577
168	0xbbbe17b0	-0.0058011636
169	0x3ab6e3e7	0.0013953418
170	0x3b159d4a	0.0022829347
171	0x3d65d5b9	0.056112025
172	0x3b78dce5	0.003797346
173	0x3d681749	0.05666283
174	0x3d3b8d63	0.045789134
175	0x3ccbf9bf	0.024899362
176	0x3d2fa616	0.042883
177	0xbd8d296f	-0.068926685
178	0xbd00fda5	-0.031491894
179	0x3b675d14	0.0035303282
180	0xbcfc9d9a	-0.030836869
181	0xbd77ade3	-0.060468566
182	0xbc26b759	-0.010175549
183	0x3b33e602	0.0027450328
184	0xbbba0d36	-0.0056778444
185	0xbcdd1c73	-0.026991105
186	0xbccc95c6	-0.024973761
187	0xbd113fa0	-0.03546107
188	0x3d1a65cf	0.03769475
189	0xbbf94e09	-0.0076081795
190	0x3c0502a8	0.008118309
191	0x3ccd10a9	0.025032358
192	0xbcc6de17	-0.024275823
193	0xbc2e682c	-0.010644954
194	0xbcf971ce	-0.030449774
195	0x3ca05f20	0.01957661
196	0xbd37f1b2	-0.044908233
197	0xbce4d2d5	-0.027932564
198	0x3d1ba4f3	0.037999105
199	0xbd2b19fc	-0.041772828
200	0xbcc8cfec	-0.024513207
201	0x3be68c23	0.0070357486
202	0x3d01fb78	0.03173396
203	0x3d61293d	0.05497097
204	0xbcadcaa0	-0.021214783
205	0xbca67e7c	-0.020323984
206	0xbb9513c6	-0.0045494763
207	0xbd3ef36d	-0.046618868
208	0x3c768177	0.015045515
209	0xbcbe0170	-0.023194045
210	0x3d698c75	0.057018716
211	0xbca1a731	-0.019733043
212	0xbb897d1f	-0.004195824
213	0xbd4e5b67	-0.050380137
214	0xbc62f326	-0.013851916
215	0xbc1d4c6f	-0.009600743
216	0x3d1dc4c3	0.038517725
217	0xbc7dd2b9	-0.015492135
218	0xbd10036f	-0.035159525
219	0x3c624cd8	0.013812266
220	0xbc2ca755	-0.010537942
221	0x3cde67bb	0.027149072
222	0x3d2cb3fe	0.04216384
223	0xbbebc761	-0.0071953987
224	0x3cbb475b	0.022861173
225	0xbd3315b3	-0.043721866
226	0xbd2c1b04	-0.04201795
227	0xbd7dd0d8	-0.061966747
228	0xbd49dfab	-0.049285572
229	0xbd7e2fb4	-0.062057212
230	0x3d14d402	0.036335
231	0xbd1b6dbc	-0.037946448
232	0xbcab3739	-0.020900356
233	0xbd5c8594	-0.053838328
234	0x3cc242fd	0.023713583
235	0xbd2ad8b7	-0.04171058
236	0x3c0dc3f7	0.008652679
237	0xbd2590cf	-0.040421303
238	0xbd2ae9f5	-0.041727025
239	0xbcc77d50	-0.024351746
240	0xbbb8d545	-0.005640658
241	0x3d554efe	0.052077286
242	0x3c36614e	0.011131598
243	0xbcae6c41	-0.021291854
244	0xbc2716f3	-0.010198343
245	0xbc11ec08	-0.008906372
246	0xbd800511	-0.06250966
247	0xbd03ec65	-0.032207865
248	0xbc0306b2	-0.007997202
249	0xbd13b2bf	-0.036059137
250	0x3cc2de72	0.02378771
251	0xbb952c31	-0.004552387
252	0x3c9401da	0.01806729
253	0xbc123e4e	-0.008925987
254	0xbbe7f430	-0.00707867
255	0xbd5e5e94	-0.054289415

bias f4 [64]
0	0xbc3b0b5b	-0.011416282
1	0xbd09a0b3	-0.03360052
2	0x3c5eda95	0.013601919
3	0xbd0e56fd	-0.034750927
4	0xbd14ce97	-0.036329832
5	0xbbfd6d74	-0.007733995
6	0x3cf7d3c2	0.030252341
7	0x3c359fed	0.011085493
8	0xbcae3873	-0.021267151
9	0x3d5ba916	0.05362805
10	0x3ce98891	0.028507503
11	0xbd5c4556	-0.05377706
12	0x3cbf46f0	0.023349255
13	0x3ca9a218	0.020707175
14	0xbb879529	-0.0041376543
15	0x3d51f591	0.05125958
16	0x3c8b9148	0.017037049
17	0xbd401e4c	-0.046903893
18	0xbcac0244	-0.020997174
19	0x3c9f0821	0.019413056
20	0x3c6ac622	0.014329465
21	0xbd44cfee	-0.04804986
22	0x3d4d12a4	0.050066605
23	0x3cba12bc	0.022714011
24	0xbd32b61b	-0.0436307
25	0xbcf5aa67	-0.02998848
26	0x3cf77886	0.030208837
27	0x3d5784f7	0.05261704
28	0x3d015bbe	0.031581633
29	0x3d627a82	0.055292614
30	0x3d6e6c49	0.058208738
31	0x3cfd2c79	0.030904995
32	0x3cc35af0	0.023847073
33	0xbd6fb921	-0.058526162
34	0x3cffa8d3	0.031208431
35	0xbd20476b	-0.03913061
36	0x3c9fb86c	0.019497119
37	0xbd5a6acb	-0.053324502
38	0xbd0c67a3	-0.034278523
39	0xbd586949	-0.052834783
40	0x3cffc49d	0.031221682
41	0x3cbef5c9	0.023310559
42	0x3a5c319c	0.00083997264
43	0x3cdfb27d	0.02730679
44	0x3d48e773	0.049048852
45	0xbd70a91e	-0.058755033
46	0x3d51578f	0.051108893
47	0x3c54f887	0.012998707
48	0xbb2d8de0	-0.002648227
49	0x3d327c28	0.043575436
50	0x3d205df9	0.03915212
51	0xbaa62a21	-0.001267735
52	0x3d6ef61f	0.058340188
53	0xbd6234e7	-0.055226233
54	0xbd58b59e	-0.05290758
55	0xbcb31bf1	-0.02186391
56	0xbd3460a7	-0.044037487
57	0x3d2d9e1a	0.042387106
58	0xbcd012d0	-0.025399595
59	0xbd53944c	-0.0516551
60	0xbb5e811b	-0.0033951465
61	0xbd19a47a	-0.037510373
62	0x3d38abdf	0.045085784
63	0x3ce5e461	0.028063001

weight f4 [64]
0	0x3f874be6	1.0570037
1	0x3f8eff47	1.1171654
2	0x3f8ba5d9	1.0909988
3	0x3f8cfb1c	1.1014132
4	0x3f8effaa	1.1171772
5	0x3f8c0d39	1.0941535
6	0x3f8b01e6	1.0859954
7	0x3f87ddf5	1.0614611
8	0x3f8a6753	1.0812782
9	0x3f85e075	1.0459124
10	0x3f8993be	1.0748212
11	0x3f8b9c5b	1.0907091
12	0x3f8b3db6	1.0878208
13	0x3f8b3fbd	1.0878826
14	0x3f88a593	1.0675529
15	0x3f8d6984	1.1047826
16	0x3f89d504	1.0768132
17	0x3f882bc0	1.0638351
18	0x3f8b80fb	1.0898737
19	0x3f8f3e91	1.1190969
20	0x3f869f00	1.0517273
21	0x3f8cb669	1.0993167
22	0x3f98088c	1.1877608
23	0x3f8d2d63	1.1029476
24	0x3f8af648	1.0856409
25	0x3f8a4bbb	1.0804361
26	0x3f8b0b47	1.0862817
27	0x3f8bae0a	1.0912488
28	0x3f860ebb	1.0473245
29	0x3f896ba4	1.0735974
30	0x3f8aa345	1.0831076
31	0x3f88e5e1	1.0695153
32	0x3f8c9a3f	1.0984572
33	0x3f886bf1	1.0657941
34	0x3f867909	1.0505687
35	0x3f8776c1	1.0583116
36	0x3f85f1d5	1.0464426
37	0x3f8f5488	1.1197672
38	0x3f8d2511	1.1026937
39	0x3f86eb00	1.0540466
40	0x3f91a1d0	1.1377506
41	0x3f9129f0	1.1340923
42	0x3f8626d0	1.0480595
43	0x3f8a806f	1.0820445
44	0x3f8b899c	1.090137
45	0x3f8c1c1b	1.0946077
46	0x3f88b1c1	1.0679246
47	0x3f89a488	1.0753336
48	0x3f8a88bb	1.0822977
49	0x3f8934d7	1.071925
50	0x3f8c1e27	1.0946702
51	0x3f8af527	1.0856065
52	0x3f88d254	1.0689187
53	0x3f8a5710	1.0807819
54	0x3f8db51d	1.1070896
55	0x3f8763d0	1.0577335
56	0x3f8e9907	1.114045
57	0x3f8b32d3	1.0874885
58	0x3f8c6195	1.096728
59	0x3f8b88d2	1.0901129
60	0x3f8b36a9	1.0876056
61	0x3f8701d7	1.0547436
62	0x3f8a82fc	1.0821223
63	0x3f88ba7a	1.0681908

bias f4 [64]
0	0x3d107132	0.0352642
1	0x3d92cb58	0.07167691
2	0x3d48ed1a	0.049054243
3	0x3d41ad80	0.047284603
4	0x3d4cccf0	0.05000013
5	0x3d1f266f	0.038855013
6	0x3d415f4d	0.047210027
7	0x3d04ce4c	0.032423303
8	0x3d373605	0.04472925
9	0x3ccb1a7f	0.024792908
10	0x3d3b0f53	0.04566891
11	0x3d33443e	0.043766253
12	0x3d2fd146	0.042924188
13	0x3d38b85a	0.045097686
14	0x3d1bb5b6	0.03801509
15	0x3d855afc	0.065114945
16	0x3d6a94eb	0.057270925
17	0x3d45ebf1	0.048320714
18	0x3d89ce39	0.06728787
19	0x3d71f083	0.05906726
20	0x3cf40f98	0.029792592
21	0x3d5922b8	0.053011626
22	0x3dbddeae	0.092709884
23	0x3d929742	0.071577564
24	0x3d41c2a7	0.047304776
25	0x3d476e8c	0.04868941
26	0x3d209a91	0.039209906
27	0x3d21edb9	0.03953335
28	0x3cec8c1b	0.028875401
29	0x3d0894ab	0.033344906
30	0x3d61d8b7	0.055138316
31	0x3d45040e	0.04809957
32	0x3d592393	0.05301244
33	0x3d2fda20	0.04293263
34	0x3cdb1b93	0.026746547
35	0x3d0663e8	0.03281012
36	0x3d1f277d	0.03885602
37	0x3d7e5d7c	0.062100872
38	0x3d5e5f06	0.05428984
39	0x3cfddca4	0.030988999
40	0x3d7c5270	0.061602056
41	0x3dad1129	0.08450539
42	0x3cfe437a	0.031038035
43	0x3cfb119d	0.030648047
44	0x3d620a5a	0.055185653
45	0x3d79ffa9	0.061034832
46	0x3cd986ed	0.026553595
47	0x3d161db2	0.036649413
48	0x3d51545d	0.051105846
49	0x3ce2b2dc	0.027673177
50	0x3d8470ae	0.064668044
51	0x3d12aee1	0.03581131
52	0x3cfba4b2	0.030718181
53	0x3d63e0a1	0.055634145
54	0x3d6505a0	0.055913568
55	0x3d33a7da	0.043861248
56	0x3d91da7c	0.07121751
57	0x3d2e6adb	0.042582374
58	0x3d308ce2	0.043103106
59	0x3d5c125c	0.053728446
60	0x3d10932b	0.0352966
61	0x3cecf090	0.028923303
62	0x3d2af81e	0.04174053
63	0x3cfec802	0.03110123

running_mean f4 [64]
0	0xbd40efda	-0.04710374
1	0xbd0d4ea4	-0.034498826
2	0xbf038bd0	-0.5138521
3	0xbe856886	-0.26056308
4	0xbe888b93	-0.26668987
5	0xbd54a481	-0.051914696
6	0x3dea6490	0.11444962
7	0x3ea9fab8	0.33199096
8	0xbec98063	-0.39355764
9	0xbdffbf96	-0.12487714
10	0x3efbba8b	0.49165758
11	0xbf0f10c9	-0.5588499
12	0x3e9e8331	0.30959466
13	0xbd7ded04	-0.061993614
14	0xbdb7a053	-0.08966126
15	0x3d1057a4	0.03523983
16	0x3e9008a4	0.28131592
17	0xbe99c451	-0.3003259
18	0xbe3478f8	-0.17624271
19	0x3e029718	0.1275295
20	0xbccbe78a	-0.02489068
21	0xbe4f4c88	-0.20244038
22	0x3e8122b0	0.25221777
23	0xbe648e52	-0.22319916
24	0xbe174bcb	-0.14775006
25	0x3e9c5f20	0.30541325
26	0xbe4dde6c	-0.20104378
27	0xbeeeeeaa	-0.4666646
28	0x3e748b33	0.23881225
29	0xbec88491	-0.3916364
30	0xbe7cbac4	-0.2468062
31	0x3e4254d5	0.18977673
32	0x3d8130b9	0.06308121
33	0xbec011eb	-0.3751367
34	0x3e123526	0.14278087
35	0xbe202179	-0.15637769
36	0xba9defdc	-0.0012049633
37	0xbe95b824	-0.2924205
38	0x3df1570e	0.117841825
39	0x3e39d068	0.18145907
40	0xbf0bd57e	-0.5462264
41	0xbe1a6c06	-0.1508027
42	0x3e65f0e5	0.22455175
43	0x3df2f218	0.11862582
44	0xbf042e01	-0.51632696
45	0xbf013d4e	-0.5048417
46	0xbe01027d	-0.12598605
47	0x3daf66d7	0.08564537
48	0x3cdad267	0.026711656
49	0xbd6fea64	-0.05857314
50	0xbe74cfe7	-0.23907433
51	0x3e863c85	0.26218048
52	0xbe3c3827	-0.18380795
53	0x3e5dbbde	0.21653697
54	0xbe02c86f	-0.12771772
55	0x3d5cdc61	0.053921107
56	0xbe9852af	-0.29750583
57	0xbec12976	-0.37726945
58	0x3ed90362	0.42385393
59	0xbe8b8c0a	-0.2725528
60	0xbd63dacf	-0.055628594
61	0x3e96abc1	0.29427913
62	0xbee97c5f	-0.456027
63	0x3e97ebaa	0.29671985

running_var f4 [64]
0	0x3e0b1e0e	0.13585684
1	0x3e4365fc	0.19081873
2	0x3dc51df6	0.09624855
3	0x3e0d9dce	0.13829729
4	0x3e17b181	0.14813806
5	0x3e0fe963	0.14053874
6	0x3e55d519	0.20882072
7	0x3e0d47c0	0.13796902
8	0x3e0d3067	0.13787995
9	0x3e0e9b46	0.1392642
10	0x3e3d687f	0.18496893
11	0x3db71ac7	0.08940654
12	0x3e1bfaeb	0.15232436
13	0x3dc3cf52	0.095610276
14	0x3e0e0b98	0.1387161
15	0x3d9cd9c9	0.07658727
16	0x3e080468	0.13282931
17	0x3e044302	0.12916186
18	0x3e6aa1e8	0.22913325
19	0x3dcecba5	0.10097436
20	0x3e082748	0.13296235
21	0x3e12dfba	0.14343157
22	0x3db28108	0.08716017
23	0x3ddc78fc	0.107652634
24	0x3def005f	0.11669993
25	0x3dc30c10	0.09523785
26	0x3db5c3ba	0.088752225
27	0x3ded4bbe	0.11586712
28	0x3e12d82c	0.14340276
29	0x3d67ec7d	0.056622017
30	0x3e1d5b9e	0.1536698
31	0x3e37567e	0.17904088
32	0x3dff063a	0.124523595
33	0x3df61bca	0.12017019
34	0x3e592741	0.2120638
35	0x3de54852	0.11195435
36	0x3db6ed1c	0.08931944
37	0x3dd79841	0.10527087
38	0x3daa4796	0.08314435
39	0x3e347f92	0.17626789
40	0x3e0f0085	0.13965042
41	0x3da4c06c	0.08044514
42	0x3e01d770	0.12679839
43	0x3de9aa5e	0.11409448
44	0x3ddc0080	0.10742283
45	0x3dc855c2	0.09781982
46	0x3d89b556	0.0672404
47	0x3e2d1886	0.16903886
48	0x3ddf8404	0.10913852
49	0x3e0777ce	0.13229296
50	0x3db1bef5	0.08679
51	0x3e04313a	0.12909403
52	0x3e4de050	0.201051
53	0x3e1af17b	0.1513118
54	0x3da0baf2	0.07848157
55	0x3dc26f12	0.09493841
56	0x3e2568a4	0.16153198
57	0x3e07422a	0.13208833
58	0x3e0eb1a7	0.13934956
59	0x3dcb0da5	0.09914712
60	0x3e2aba27	0.16672574
61	0x3dd2b082	0.102875724
62	0x3db84137	0.08996814
63	0x3e12e07f	0.14343451

weight f4 [10, 256]
0	0x3d3a392d	0.045464683
1	0x3d90602c	0.07049593
2	0x3cb040b8	0.021515235
3	0x3bbb1e5c	0.005710406
4	0x3a107c63	0.0005511699
5	0x3d6b635d	0.057467807
6	0xbce65049	-0.028114455
7	0xbca76832	-0.020435426
8	0x3d7ffb59	0.062495563
9	0xbd461de4	-0.04836835
10	0x3d8a46b4	0.06751767
11	0xbb563586	-0.003268571
12	0x3d5d1721	0.053977136
13	0xbe0218fc	-0.12704843
14	0x3b8adeeb	0.0042379997
15	0xbde11879	-0.10990996
16	0x3c506d40	0.01272136
17	0xbda12b54	-0.07869592
18	0xbc8fbf66	-0.01754732
19	0xbc9f1c3f	-0.019422648
20	0x3d20805b	0.03918491
21	0xbd8572f2	-0.06516065
22	0x3d845c23	0.06462886
23	0xbd258f3e	-0.04041981
24	0x3d3217bd	0.04347967
25	0xbda30139	-0.079592176
26	0x3d11a2db	0.0355557
27	0x3e72d5c9	0.23714365
28	0x3c8cc078	0.01718162
29	0x3e122a0f	0.14273857
30	0x3d69ad2a	0.057049908
31	0xbd6a078a	-0.057136096
32	0xbd333257	-0.04374918
33	0xbdbadae7	-0.091237836
34	0x3c0d51cc	0.008625459
35	0xbd8f2931	-0.069902785
36	0xbc9c9394	-0.01911334
37	0x3d4e3632	0.050344653
38	0xbd85a6b5	-0.065259375
39	0xbc391bb4	-0.011298109
40	0x3cbe1578	0.023203596
41	0x3e394dd8	0.18096101
42	0x3d130b01	0.035899166
43	0xbd142663	-0.03616942
44	0xbd54d39f	-0.05195963
45	0xbd222f9c	-0.039596185
46	0xbd2612b8	-0.040545195
47	0x3d19a6e1	0.037512664
48	0x3d6fb90f	0.058526095
49	0xbd845d20	-0.06463075
50	0x3c612d62	0.01374373
51	0xbd77c43b	-0.060489874
52	0x3d2fcf21	0.042922143
53	0x3c35cae4	0.011095736
54	0xbd661170	-0.056168973
55	0x3e0a95b2	0.13533667
56	0xbce70bb9	-0.028203832
57	0xba7ffe50	-0.00097653735
58	0x3db39510	0.08768666
59	0xbd06c161	-0.032899264
60	0xbd3c3e7c	-0.045958027
61	0xba9a4583	-0.0011769984
62	0x3c8fad16	0.017538588
63	0x3c3dbeae	0.011581106
64	0x3bd32ddc	0.006444676
65	0x3e0a6ae7	0.13517343
66	0x3dbb80ea	0.09155448
67	0x3bc17ff3	0.0059051453
68	0x3d155a7f	0.036463257
69	0xbcd65ae6	-0.02616639
70	0x3d591898	0.05300197
71	0xbd1d405f	-0.038391467
72	0xbd3af4e2	-0.045643695
73	0x3de0a796	0.109694645
74	0xbd61256e	-0.054967336
75	0xbde5154c	-0.11185703
76	0xbba15b11	-0.004924186
77	0xbdc1cd83	-0.094630264
78	0x3dd7e5ea	0.105418995
79	0xbd91df3e	-0.07122658
80	0xbc374533	-0.011185932
81	0xbd9b2428	-0.07575256
82	0x3d035ce0	0.032070994
83	0xbdd3feba	-0.103513196
84	0x3c71d848	0.014761038
85	0xbc68fa74	-0.014219869
86	0x3c88ef88	0.01671578
87	0x3e628aae	0.22123215
88	0xbda97c41	-0.08275653
89	0xbd9d2895	-0.07673756
90	0x3d1d9f77	0.038482156
91	0xbd7ecfe3	-0.062209975
92	0xbc7fb767	-0.015607691
93	0xbcc30777	-0.02380727
94	0xbc4b3780	-0.012403369
95	0xbd364664	-0.044500723
96	0x3d9941b7	0.07483237
97	0xbcb5157e	-0.022104975
98	0xbcc044f9	-0.023470389
99	0x3cff8729	0.03119238
100	0x3dbe28c1	0.09285117
101	0x3bf64e57	0.007516663
102	0x3d148d58	0.03626761
103	0xbd6a744f	-0.057239827
104	0xbd46dfc6	-0.04855325
105	0x3d945a6b	0.07243808
106	0xbc87d07c	-0.016578905
107	0x3d38afb9	0.045089457
108	0xbd14936d	-0.03627341
109	0xbd0ffa84	-0.03515102
110	0x3d6dd5e1	0.0580653
111	0xbe1c82b7	-0.15284239
112	0xbc50684a	-0.012720177
113	0x3c88cc7e	0.016699072
114	0x3c7f98cc	0.015600394
115	0xbdcfd992	-0.1014892
116	0xbd1b1e40	-0.037870646
117	0x3dc991de	0.09842275
118	0xbde0e8c8	-0.109818995
119	0xbcd991e3	-0.026558822
120	0x3cdcc4e1	0.026949348
121	0x3d989a39	0.07451291
122	0x3d83a70b	0.06428345
123	0xbd9f9a9b	-0.077931605
124	0xbd1d3148	-0.038377076
125	0xbd64182a	-0.055687107
126	0xbccde47b	-0.025133362
127	0xbd379a22	-0.044824727
128	0x3d500f52	0.05079586
129	0xbd9127f4	-0.070876986
130	0x3e1ac4e3	0.15114169
131	0xbdd1bcca	-0.10241087
132	0xbcabcade	-0.020970758
133	0xbdc97ac3	-0.09837868
134	0xbd68bdbc	-0.05682157
135	0x3e346c55	0.1761945
136	0x3d637a9b	0.055536848
137	0x36b3e6de	5.361492e-06
138	0x3d1b6f77	0.037948098
139	0x3c758ab7	0.0149866855
140	0xbcc57ebb	-0.024108281
141	0xbdc875d2	-0.097880974
142	0x3ce266ff	0.027637003
143	0x3e2de9b4	0.16983682
144	0xbcc7cbee	-0.024389233
145	0xbc504d74	-0.012713779
146	0x3cb032f2	0.021508668
147	0xbd1e2d62	-0.0386175
148	0xbd51bf06	-0.051207565
149	0xbd81508f	-0.063141935
150	0x3cd447be	0.025913116
151	0x3ddc3f41	0.10754252
152	0x3cae61eb	0.021286925
153	0x3ba9593c	0.0051681083
154	0xbdb3b082	-0.087739006
155	0x3c9de928	0.019276217
156	0xbd897947	-0.06712585
157	0x3db10bf4	0.08644858
158	0xbc813290	-0.01577118
159	0xbd47fdb2	-0.048825927
160	0xbcf647a1	-0.030063452
161	0x3cd5a9fa	0.026082028
162	0xbe1593ae	-0.14607117
163	0x3e3c690c	0.18399447
164	0xbd8038fe	-0.062608704
165	0xbcb55978	-0.022137389
166	0xbd6f9105	-0.05848791
167	0xbe06c40d	-0.13160725
168	0x3cb8f4f0	0.022577733
169	0xbd8302b6	-0.063970014
170	0xbd846860	-0.064652205
171	0x3d0bbbb8	0.03411457
172	0xbc9a495d	-0.01883381
173	0xbd680237	-0.056642737
174	0x3c34c554	0.011033375
175	0xbba02116	-0.0048867567
176	0x3cea44cb	0.028597256
177	0x3e02835e	0.12745425
178	0xbd2d9843	-0.042381536
179	0xbcaef256	-0.02135579
180	0x3c222163	0.009895655
181	0x3d3d2ba0	0.046184182
182	0xbd886b37	-0.066610746
183	0x3e313c7d	0.1730823
184	0x3c64d0be	0.013965784
185	0x3d667746	0.05626609
186	0xbd245448	-0.04011944
187	0x3dab634c	0.08368549
188	0xbd903830	-0.07041967
189	0x3dc06531	0.09394301
190	0xbd8b185d	-0.06791756
191	0xbc97f500	-0.018549442
192	0x3da5d3d0	0.08097041
193	0xbdb1a4e1	-0.08674026
194	0x3ce802d2	0.028321657
195	0xbbc006b1	-0.0058601727
196	0x3d2225e4	0.039586917
197	0xbd805f8b	-0.062682234
198	0x3df87b18	0.12132853
199	0xbe0806bf	-0.13283823
200	0x3cfd9e81	0.03095937
201	0x3d75a558	0.059972137
202	0xbd517cfc	-0.051144585
203	0xbc942cc1	-0.018087747
204	0xbd7a2262	-0.061067946
205	0xbc0cee66	-0.0086017605
206	0xbdceb9f4	-0.100940615
207	0xbd587901	-0.052849773
208	0xbd076d20	-0.033063054
209	0xbd3b0afa	-0.045664765
210	0x3d6c5c3a	0.05770514
211	0xbdf201d0	-0.11816752
212	0xbc9a4c7b	-0.018835297
213	0xbc000831	-0.007814453
214	0xbd959ea1	-0.07305647
215	0xbd99b3c2	-0.07504989
216	0x3d09bc43	0.033626806
217	0x3d88d5ec	0.06681427
218	0xbd8758f1	-0.06608761
219	0xbc63a83e	-0.0138950925
220	0xbd46128e	-0.04835754
221	0xbceca76c	-0.028888427
222	0x3dcf71c8	0.10129124
223	0x3cac6001	0.021041872
224	0x3e070cc5	0.13188465
225	0xbd3e271b	-0.046424013
226	0xbd583a38	-0.052789897
227	0x3e332888	0.1749593
228	0xbd0f57bb	-0.034995776
229	0x3db6b30d	0.0892087
230	0xbcfdde9b	-0.030989936
231	0x3d7f2452	0.062290497
232	0x3cedfae7	0.029050304
233	0xbdb6c866	-0.08924942
234	0x3e280319	0.16407432
235	0xbdcb0c95	-0.09914509
236	0xbd7524fa	-0.059849717
237	0x3d3bac77	0.045818772
238	0xbd568aec	-0.05237858
239	0x3d833cf8	0.06408113
240	0xbc969aa5	-0.018384287
241	0xbd073dc0	-0.033017874
242	0x3e2d2756	0.16909537
243	0xbd9cfc72	-0.076653376
244	0xbd548455	-0.051884014
245	0xbd3ec88c	-0.046577975
246	0x3cf809f2	0.03027818
247	0xbdb19d51	-0.08672584
248	0x3d2f13bb	0.042743426
249	0xbda7c951	-0.08192695
250	0xbc75f5ef	-0.015012248
251	0x3e80c1a3	0.25147733
252	0x3cd53ec9	0.026030915
253	0x3c90af0e	0.017661598
254	0x3d6c1d90	0.05764538
255	0xbd54096f	-0.05176681

bias f4 [10]
0	0xbd331aa6	-0.043726586
1	0xbd17cc53	-0.037060093
2	0xbc98fa7c	-0.018674128
3	0x3b9b4cc0	0.004739374
4	0xbc74b25b	-0.014935101
5	0xbd2d36b5	-0.0422885
6	0x3d0f53c2	0.034991987
7	0x3d659510	0.05605036
8	0xbd2f8d3c	-0.0428593
9	0x3acd6edc	0.0015673297
